…
iz_batch_size=2000, lr=0.001, weight_decay=1e-05, l1int=None, l2int=None, sl2int=None, dl2int=None, dtl2int=None, JFrobint=None, JdiagFrobint=None, JoffdiagFrobint=None, save='../results/diego_newloss', save_freq=1000, viz_freq=100, viz_freq_growth=100, val_freq=100, log_freq=10, gpu=0, use_cpu=False, no_display_loss=True, top_k_reg=0.0, training_noise=0.0, embedding_name='pca', whiten=False)
SequentialFlow(
  (chain): ModuleList(
    (0): ODEHandler(
      (odefunc): RegularizedVanillaODEfunc(
        (odefunc): VanillaODEfunc(
          (diffeq): DiffeqNet(
            (time_proj_unactivated): Linear(in_features=1, out_features=1, bias=True)
            (feature_mapping): InputMapping(
              (B): Linear(in_features=6, out_features=262, bias=False)
            )
            (fc1): Linear(in_features=262, out_features=256, bias=True)
            (fc2): Linear(in_features=256, out_features=256, bias=True)
            (fc3): Linear(in_features=256, out_features=5, bias=True)
            (nonl): Tanh()
          )
        )
      )
    )
  )
)
Number of trainable parameters: 134407
/Users/diegoesc/Dropbox/_academics/college/UROP/trajnet_ablation/SinkhornTrajNet/TrajectoryNet/main.py
""" main.py

Learns ODE from scrna data

"""
import os
import matplotlib
import matplotlib.pyplot as plt
import numpy as np
import time

import torch
…
orkers=8, batch_size=1000, test_batch_size=1000, viz_batch_size=2000, lr=0.001, weight_decay=1e-05, l1int=None, l2int=None, sl2int=None, dl2int=None, dtl2int=None, JFrobint=None, JdiagFrobint=None, JoffdiagFrobint=None, save='../results/diego_newloss', save_freq=1000, viz_freq=100, viz_freq_growth=100, val_freq=100, log_freq=10, gpu=0, use_cpu=False, no_display_loss=True, top_k_reg=0.0, training_noise=0.0, embedding_name='pca', whiten=False)
SequentialFlow(
  (chain): ModuleList(
    (0): ODEHandler(
      (odefunc): VanillaODEfunc(
        (diffeq): DiffeqNet(
          (time_proj_unactivated): Linear(in_features=1, out_features=1, bias=True)
          (feature_mapping): InputMapping(
            (B): Linear(in_features=6, out_features=306, bias=False)
          )
          (fc1): Linear(in_features=306, out_features=256, bias=True)
          (fc2): Linear(in_features=256, out_features=256, bias=True)
          (fc3): Linear(in_features=256, out_features=5, bias=True)
          (nonl): Tanh()
        )
      )
    )
  )
)
Number of trainable parameters: 145671
/Users/diegoesc/Dropbox/_academics/college/UROP/trajnet_ablation/SinkhornTrajNet/TrajectoryNet/main.py
Namespace(test=False, dataset='EB-PCA', leaveout_timepoint=2, max_dim=5, dims='64-64-64', num_blocks=1, time_scale=0.5, train_T=True, divergence_fn='brute_forc
…
